weights/model-lckdb.pkl (torch_old, 3399 bytes, 6 tensors)

rnn.weight_ih_l0 f4 [12, 17]
00000000: 8a28 583f a7df 3cbf dd69 b1be e788 1bbe
00000010: 197d 62bf 3299 093f 9c40 73bd f4ad e2bd
00000020: 89c2 493f 245a 3ebf 8472 24be bf54 36be
00000030: 5508 20bf d264 e6bd 72d3 eabe 2c63 fa3e
00000040: 453c d7be 69de 82be b53f 8c3f 48fa b73d
00000050: 31cc b3bd c6a6 a3bf dd8b 64be f202 ffbd
00000060: 8873 bdbd 67c8 01be a437 303e b3f3 c73e
00000070: d07b 90be fb60 21bf 6c29 a53d b632 8c3e
00000080: 0628 2cbb f97e 03bf ea55 cabe a3e8 d3be
00000090: 97d6 223f 7fc7 3b3d 3e2b 2e3f 8519 62bf
000000a0: a7d0 ac3e 11c9 aebd 2eb3 623f eb8b 223f
000000b0: e37b adbe 5f9b a7be df3a b83e 6ce0 ad3d
000000c0: 7377 d53c 89db 0f3f 8a83 18be f79d 3ebf
000000d0: ad87 27bf e0e7 a03e 8d2d 6d3f 9aa5 953f
000000e0: 8ab3 a3be f0df 3cbf 471f b43f 7b86 53be
000000f0: 9f1e aebd 9289 c3be 04e3 a6be 80b8 833f
00000100: 0bb4 25be d3dc 423f c16d 1e3f 0a79 35bf
00000110: 976e 3fbf cdc8 9e3e ccef 583f eeb0 f7bd
00000120: f0f2 07bf 3af3 d33e 9bca 883f 4931 30bf
00000130: 6ff9 20bf d49a ff3e 00b6 a73e 690b 693f
00000140: 6032 cebc 0e09 5fbe bc12 093f 8cfe 3bbf
00000150: 113e b13e 0d31 31bf e584 12bf aa97 ba3e
00000160: 1dbb 9f3e 64dc 123f 1ee9 1a3f 10c1 b4be
00000170: 0c23 983d 07d1 0c3f 7bd0 573e b1bc ac3d
00000180: a79f b9be e351 d63e ae7b fbbd 3f4d 0c3f
00000190: 2834 353f 14cd ec3e f70f 303f 471d 09bf
000001a0: 5bf1 40be 46e9 ce3e 31c4 7c3f c43c 043f
000001b0: e3a2 c3be 22c7 96be cc54 e3be 3372 1f3f
000001c0: b06b 4b3f c0ee 6bbf 6a0d 9bbe 9c98 5c3e
000001d0: e936 523d f5fd b93e 461d 23bf 7131 05bf
000001e0: 4a9a 30bf e3da 57bd 11c1 8f3e 661b 2abe
000001f0: a14f 653f b9d1 573f 8a56 52bf cd04 81bc
00000200: 2c2f 6e3f 0e65 853f 7d16 36be 80dc 51bd
00000210: 7810 7f3e 5dea edbe aee8 493e e85f 8a3f
00000220: 1889 613f 809f 33bf cd3d 083f 93a9 233f
00000230: c8c7 6dbf 0aa2 1cbf f377 293f 085a 853f
00000240: 7aaf 26bf 22fc f3be a62a e8be 3022 32bf
00000250: 7c9a 4c3f 7c12 473e 41e8 633f 625b 2fbe
00000260: e9ab 18bf 51f1 6a3e b896 43bf fd52 c33e
00000270: 54ae 13bf f28c 15bf d29b 5d3f 5320 4e3e
00000280: d045 163e 873a 893d 2bc5 95be 350d 623f
00000290: e7a0 f9bd d6b4 2c3f aa3a d7bd aeec 393f
000002a0: 98e4 1ebf a630 2fbf 9c94 33bf 3cf3 703f
000002b0: f933 22bf 811d f9bd c12d 643f 812a 763f
000002c0: 2ee7 cf3e 46cd 553c 860e 52bf 1e02 3f3f
000002d0: a66c 2cbe 50b5 87be 9e6e 10bf 788f 69bd
000002e0: bf10 12bf 06d7 5b3f 7ef1 da3e ce86 6d3e
000002f0: fa4c 3dbf 2695 f1be 8375 683f d79a a7be
00000300: 7fb7 5d3e 78d9 0cbf 6ab6 883f 93e1 32bf
00000310: 139f 253f c305 d1be d064 713f 1211 34bf
00000320: 2c2f 8f3d a572 1fbf 9e5e 90be 59b1 8b3d
0.8443686 -0.73778766 -0.3465108 -0.15188943 -0.88472134 0.5374938 -0.05938779 -0.11068335
0.7881246 -0.74356294 -0.16059309 -0.17805766 -0.62512714 -0.11249699 -0.45864445 0.48903787
-0.4203817 -0.2556031 1.0956942 0.08983284 -0.08779181 -1.278527 -0.22318979 -0.12451734
-0.092505515 -0.12674104 0.17208725 0.39053115 -0.2821946 -0.63038605 0.08064541 0.2738244
-0.0026268973 -0.5136562 -0.39518672 -0.41388425 0.6360869 0.04584455 0.6803473 -0.8832019
0.3375294 -0.08534444 0.88554657 0.6349475 -0.3388358 -0.32735726 0.35982415 0.08490071
0.026057934 0.5619436 -0.14893928 -0.74459785 -0.654414 0.31426907 0.9264763 1.1691163
-0.31972915 -0.737792 1.4072045 -0.20656769 -0.08501934 -0.38190895 -0.32595074 1.029068
-0.16181962 0.761182 0.6188622 -0.70887816 -0.7477812 0.31012574 0.847409 -0.120942935
-0.5310507 0.41396505 1.068683 -0.68825203 -0.62880605 0.49922812 0.32756042 0.91033036
-0.025170505 -0.21780798 0.5354421 -0.7343528 0.34617665 -0.6921547 -0.5723403 0.36443835
0.31197444 0.5736754 0.6051196 -0.35303545 0.0742856 0.5500645 0.21075623 0.084344275
-0.36254618 0.4185935 -0.122794494 0.5480537 0.7078271 0.46250212 0.6877436 -0.535603
-0.1884207 0.40412349 0.98736864 0.5165522 -0.3821021 -0.294488 -0.44400632 0.6228363
0.79461193 -0.9216118 -0.30283672 0.21542591 0.051321898 0.36326566 -0.6371654 -0.52028567
-0.68985426 -0.05269898 0.28076985 -0.16612014 0.8957463 0.84304386 -0.821633 -0.01574936
0.9304073 1.0421464 -0.17782016 -0.051235676 0.24908626 -0.46467867 0.19717667 1.0810518
0.88099813 -0.7016525 0.532193 0.63930625 -0.92882967 -0.6118475 0.66198653 1.04181
-0.65111506 -0.476533 -0.45345038 -0.69583416 0.79923224 0.19440645 0.89026266 -0.17124704
-0.59637314 0.22943617 -0.76401854 0.38149253 -0.5768788 -0.5841819 0.8656589 0.20129518
0.14675069 0.06700616 -0.2925199 0.883014 -0.12188893 0.67463434 -0.10509236 0.7262677
-0.62067556 -0.68433607 -0.70148635 0.94121146 -0.63360554 -0.121638305 0.89132315 0.96158606
0.40606064 0.013049429 -0.8205341 0.74612606 -0.16838321 -0.26505518 -0.5641879 -0.057021588
-0.570568 0.85874975 0.4276237 0.23195955 -0.7394558 -0.47184104 0.9080431 -0.3273532
0.2165203 -0.5501933 1.0680668 -0.6987545 0.64695853 -0.40824708 0.9429445 -0.7033855
0.06991419 -0.6228431 -0.28197187 0.06820936

rnn.weight_hh_l0 f4 [12, 12]
00000000: faef cbbe 03dc 2abf 2f3a fd3c 4ca2 e03e
00000010: 8fad 0e3e 475e 3b3f fc65 9c3d 0044 223f
00000020: af8d 1bbf e239 323e 3951 303f b7f5 223f
00000030: 266d 103f 3318 47bc aae9 cbbd 1d74 d73e
00000040: f576 bfbe bcf7 96bd bb2c 03bf 4bb5 20bf
00000050: 6f25 b43e 5647 ddbc 1dad 67be 68b9 9f3e
00000060: 1772 763e c779 883f a7ae 663d 8a8d 0abf
00000070: 06a6 773f 73f0 cc3b 77ce 803b d72f 1b3f
00000080: d96d 07bf 8574 1a3f 74a6 f43e 1dfc 65bf
00000090: 60a3 aabe a99b 333e 3cac a43e 78bb d13e
000000a0: 889f d53e 8903 0e3f 9e21 04bf 31d5 5abf
000000b0: ec04 19be 6a89 203f 41f6 fc3e 3fdc 1ebf
000000c0: 5f32 dbbd eea0 ff3e 02b4 cf3c a590 b7be
000000d0: 91e3 233f 4047 dc3d 54db 93be 1835 b0be
000000e0: e01c 5f3f ee88 df3e f68c 5ebd aecc 893f
000000f0: 48f9 d3be 4cbd 223e a541 c03e eeeb a0be
00000100: bde2 863f da94 99be be2c 603e cd44 dd3e
00000110: adfc b73e 9816 f83e 506a bcbe ce34 38bf
00000120: ab57 00bf 1f59 4abe 2afc ac3d 7a7e 093f
00000130: 8944 163f ff2d cd3e e38a e83e 101a 4e3e
00000140: 6ca3 0dbe f846 96be af65 a9be fc9b 9d3f
00000150: aac4 ce3e 69c6 663e c3fa 843e deca 5ebc
00000160: 90e4 ab3e 1ae6 4d3e 7647 cd3e 8b9c 0abf
00000170: b715 f0bb 4d31 57be 52a1 86be 3325 9dbe
00000180: 9495 433e b985 6abb ba44 5d3e cd20 02be
00000190: 08a7 54ba 6cf3 133c bcb9 46bd 497c 083e
000001a0: 35a3 ffbe fec7 173f b975 8bbc 70d5 29bf
000001b0: 79b0 bbbd 545c f53d ec8e 193f 8b8c f9be
000001c0: ae77 1b3e 8716 fe3e d2c6 f33e e61d 0a3f
000001d0: 70a1 94be 65d0 0a3e 7d1f 56be 532c 49bc
000001e0: 1f56 843e 0abd d5be eddf d7bd 0e29 233f
000001f0: 1ce8 0fbe e99f b13e 6cbb 4a3f 6b93 7cba
00000200: 556b 8e3f bd9a 1e3f f5bd 1dbe db1d e3be
00000210: 2429 d3bd 6e1e 5abe d171 433e 07dc b53e
00000220: 3131 123d 62ef 1fbf 661e 38b9 bf83 063f
00000230: 2390 5fbe dd42 4a3e ac7b 5cbd d08f 1bbf
-0.39831525 -0.6674196 0.030911533 0.43873823 0.13933395 0.7319073 0.076366395 0.6338501
-0.60763067 0.17404893 0.68873936 0.6365618 0.5641655 -0.012151766 -0.09956677 0.42080775
-0.37395445 -0.0737147 -0.5124013 -0.6277663 0.3518481 -0.027011555 -0.22624631 0.3119614
0.2406696 1.0662163 0.056318905 -0.5412222 0.96737707 0.0062542497 0.0039308625 0.6061987
-0.5290199 0.60334045 0.47783244 -0.8983782 -0.3332777 0.17539848 0.32162654 0.4096334
0.41723275 0.55474144 -0.51613796 -0.85481554 -0.14943284 0.6270968 0.49406627 -0.6205482
-0.10702967 0.49927467 0.02535439 -0.35852543 0.64019114 0.10755777 -0.28878272 -0.34415507
0.87153435 0.43659157 -0.05433365 1.0765588 -0.41401124 0.15892524 0.37550083 -0.3143
1.0537945 -0.29996377 0.21892068 0.43216553 0.35934964 0.48454738 -0.3679986 -0.71955574
-0.5013377 -0.1976056 0.08446534 0.5370861 0.58698326 0.40074155 0.45418462 0.2012713
-0.13831872 -0.2935102 -0.3308539 1.2313228 0.40384418 0.22536625 0.25972566 -0.013598172
0.33572817 0.20107308 0.40093583 -0.54145116 -0.0073268074 -0.210149 -0.26294953 -0.30692443
0.19100028 -0.0035785271 0.21608248 -0.12707825 -0.0008112048 0.009030204 -0.048516974 0.13328661
-0.49929205 0.5928954 -0.017023908 -0.66341305 -0.09164519 0.11980501 0.59983706 -0.48740038
0.15182373 0.49626562 0.47612625 0.5395187 -0.29029417 0.13556059 -0.2091045 -0.012278634
0.25846955 -0.41745788 -0.10540757 0.6373452 -0.14053386 0.34692314 0.79192233 -0.0009635004
1.1126505 0.6195486 -0.15404494 -0.44358715 -0.10310581 -0.2130067 0.19086386 0.3551943
0.035691444 -0.62474644 -0.00017558932 0.5254478 -0.21832328 0.19752069 -0.05382888 -0.60766315

rnn.bias_ih_l0 f4 [12]
00000000: b6f3 f5be 0b95 d7be 4e2d e43e 76cc d73e
00000010: 807b 6f3e 64ba 933d 1ddc d53e f4a2 193f
00000020: 6b9d 513f 7abe cc3e e427 aa3e 2910 0a3f
-0.480375 -0.42105898 0.44565815 0.4214818 0.23386955 0.072132856 0.41769496 0.6001427
0.81880826 0.39989072 0.3323356 0.5393091

rnn.bias_hh_l0 f4 [12]
00000000: 1e32 c5be 63ce 08bf 8ddc e33e f1eb a13e
00000010: 6e9a e83e 5320 483e c808 14bd 5f38 803e
00000020: fe34 1f3f e1b6 833e ace6 afbd 41ea 293f
-0.385148 -0.5343992 0.44504204 0.31625322 0.4543032 0.1954358 -0.036141187 0.25043008
0.62190235 0.25725463 -0.08588919 0.6637307

fc.weight f4 [17, 12]
00000000: f767 08bf 51a4 0abf 8bc1 dd3e 5f55 003f
00000010: 8dcb 12bf de1c 493f 743c 893e c811 f53e
00000020: 2051 b2be a4e9 46bf c7a1 1b3f a895 c4be
00000030: 67fb 883d a727 99be 474a 20be 185d 303f
00000040: 436b 73bf ae53 3ebf 4d40 263e 46e9 8bbe
00000050: 8553 653f d32d 243c c54c d43d 052f 8c3f
00000060: 7c69 393f 8c8e 14bf c723 2e3f 2687 d8be
00000070: 1246 4fbf 0dcd 413f 29e0 01be f3cf 44bf
00000080: 9f03 28bf 3469 793e 61ba 30bf 665b 32bf
00000090: b96d f13e 510c 1ebf d811 efbe b0c9 2b3f
000000a0: cc87 393f 4c18 c8be 730c d53e bcdf 5f3e
000000b0: f3b8 13bf 5891 473d 9265 5bbf 696e 00bf
000000c0: 9294 79bf 0bbd 193f 9f6e 173f da21 8b3f
000000d0: 0f46 eabe cabe 0f3f 849d 1fbf 30bc c93d
000000e0: b80e 503f 1835 073f 2beb 6ebf b9e2 2a3e
000000f0: bcef 193e 16a6 dfbe 1d8f 27bf 4a38 44bf
00000100: 6a89 05bf daf9 34bd ff1d 173f de32 733e
00000110: b623 77be 8e79 6a3f 0c12 2cbf 0eab 0f3f
00000120: ffef b6be 3cd6 9bbe 4f42 13bf ed05 86be
00000130: cb1d 1cbf c293 2abf fe38 a9be 3c8a 93be
00000140: 6a30 65bd 8115 ffbe 5b9d 4abe cbd6 babe
00000150: 68cf 233f 7599 3ebf 110f 9a3e f427 6fbf
00000160: 0b63 2dbf dc45 7abf a760 263f 4a1a 09bf
00000170: 1640 db3e ec8f 273f 3d45 4bbf 8b15 90bd
00000180: 3b64 5c3e 64f2 bf3e 6242 4fbf 1c5d 44bf
00000190: 2bff a43d 4373 2b3c 10c2 c63e 0b27 543f
000001a0: 025e e3be b5bc 573f 7953 353e 516d 7cbf
000001b0: a3bd c2be f896 a63e a7dc 2abf 857f ad3e
000001c0: bbc3 c53e c3ca d7be 5cbc 82bf e67a b6be
000001d0: 0713 a7be ff81 2ebf e6dd 343f 2dd8 2dbf
000001e0: a5b0 703f b059 62bf 99ec 263f b879 ee3e
000001f0: 2416 07bf 293a 72bd f7ca 20bf 5a84 33bf
00000200: 186e 0a3d 6c82 e5be 6a3d 66bf 8611 18bf
00000210: fbf8 54bf d62d 3cbf 8754 8d3e bc05 80bf
00000220: dadf 863f 5138 323e 106d 7abf c3ea 953f
00000230: 8cb6 203f f59f a23e c5cc 973d 6d82 ba3e
00000240: e6c2 e7bd 42e0 efbe 971f 163d 63cf 0ebf
00000250: 6790 72be 4110 cbbe 649a 1abf 572c b63d
00000260: ab56 b1be f34b c4bd 2216 423f b1dd 1ebf
00000270: f84c f03e 2ae2 40bf f5cf 343e ce96 20bf
00000280: 3675 103f 3eba 47bf a835 08bf 9f2c 72bf
00000290: babf a5be e183 783e f412 55bf a74b 6b3f
000002a0: 10d5 15bf e49b 923f 94cd 34bf 0bd8 b0bf
000002b0: ef5d fd3e ba92 cdbe 2fac 4b3e dc6b c4be
000002c0: 8413 31bf af89 18bf 0c54 613f 5353 5cbf
000002d0: 622d 043f 5f58 49bf 443a 873d fc11 fe3e
000002e0: 565c 653f 79c4 b3bd 7625 67bf 5574 68bf
000002f0: ff74 32bf 55bc 2fbf 70a7 f1be 35aa 85be
00000300: 680f c73e cab4 93bf 2ffe 3ebf 56c1 673e
00000310: 3cfd 943e 54b2 eebe c746 913f 17a0 4dbf
00000320: c390 6bbf d458 90bf 46ce be3e 6e5f 4fbf
-0.5328364 -0.54156977 0.43311724 0.50130266 -0.57341844 0.7855967 0.26803935 0.4786513
-0.34827518 -0.7770026 0.6079373 -0.3839543 0.06688576 -0.29913065 -0.15653335 0.6889205
-0.95085543 -0.74346435 0.16235466 -0.2732641 0.89580566 0.010020691 0.10366205 1.0951849
0.7242658 -0.5803001 0.6802334 -0.4229061 -0.80966294 0.7570351 -0.12683167 -0.76879805
-0.65630525 0.24356538 -0.6903439 -0.6967071 0.47154024 -0.61737543 -0.466933 0.67104626
0.72472835 -0.39081037 0.4161106 0.21862692 -0.57704085 0.048722595 -0.8570186 -0.5016847
-0.97492325 0.6005408 0.5915317 1.0869706 -0.45756575 0.56150496 -0.62349725 0.09850347
0.8127246 0.5281539 -0.9332759 0.1668805 0.15032858 -0.436814 -0.6545275 -0.7664839
-0.521628 -0.04418359 0.59030145 0.23749873 -0.24134716 0.9159173 -0.6721504 0.56120384
-0.35729977 -0.30436885 -0.57523054 -0.26176396 -0.6098296 -0.6663171 -0.33051294 -0.28816402
-0.055954374 -0.49821094 -0.19786589 -0.36492 0.6398835 -0.74452907 0.3008962 -0.9342034
-0.6772925 -0.97762847 0.6499123 -0.5355574 0.4282233 0.6545398 -0.79402524 -0.07035359
0.2152261 0.37489617 -0.8096067 -0.76704574 0.08056482 0.010464492 0.38819933 0.82872075
-0.4440766 0.8427232 0.17707624 -0.98604304 -0.38035306 0.32537055 -0.6674294 0.33886352
0.38625893 -0.42146882 -1.0213733 -0.3564064 -0.32631704 -0.6816711 0.7065109 -0.67907983
0.9401954 -0.884181 0.6520477 0.4657724 -0.5276816 -0.059137497 -0.628097 -0.7012383
0.0337964 -0.44826066 -0.8993746 -0.5940174 -0.83192414 -0.7350744 0.27603552 -1.000175
1.0537064 0.17404296 -0.97822666 1.1712269 0.62778544 0.31762663 0.074121036 0.36427632
-0.11316471 -0.46850783 0.03665122 -0.55785197 -0.23687898 -0.39660838 -0.6039183 0.08895176
-0.34636435 -0.09584799 0.7581502 -0.62057024 0.46933722 -0.753451 0.17657454 -0.6273011
0.5642885 -0.7801856 -0.5320687 -0.94599336 -0.32372838 0.24269058 -0.83232045 0.9191231
-0.5852823 1.1453824 -0.7062619 -1.3815931 0.49485728 -0.40151006 0.19889902 -0.3836354
-0.69170403 -0.5958509 0.8801887 -0.8606464 0.5163175 -0.7865047 0.0660291 0.49623096
0.8959402 -0.087777086 -0.90291536 -0.9080251 -0.6970977 -0.68646747 -0.47198057 -0.2610642
0.38878942 -1.1539547 -0.74606603 0.22632346 0.29099452 -0.4662043 1.1349725 -0.803224
-0.92017764 -1.1277108 0.3726675 -0.8100499

fc.bias f4 [17]
00000000: c958 c83d 3f77 fe3d c778 8bbd 5aef a7be
00000010: a54a e43e ba94 13be 2c00 d8be 1ab0 443e
00000020: a8b1 90be ccbf cdbe 54f6 9abd cafb 2e3f
00000030: a553 4f3e 82da 9b3b b7ae 8b3e 857b a2bc
00000040: 7d71 353f
0.097825594 0.12425088 -0.06810146 -0.32799798 0.445882 -0.14412203 -0.4218763 0.19207802
-0.2826054 -0.40185392 -0.075665146 0.6835295 0.20246752 0.004756273 0.27281734 -0.01983429
0.70876294
